…
el.add(BatchNormalization())\n\nmodel.add(MaxPooling2D(pool_size=(3, 3)))\n\nmodel.add(Dense(units=128, activation='relu'))\n\nwith options({\"layout_optimizer\": False}):\n    model.add(Dropout(0.2))\nmodel.add(Dense(units=10, activation='softmax'))\n\nmodel.add(Flatten())\nmodel.add(Dense(units=1, activation='linear'))\n\n\nmodel.summary()\n\nModel: \"sequential\"\n_________________________________________________________________\n Layer (type)                Output Shape              Param #   \n=================================================================\n conv2d (Conv2D)             (None, 43, 43, 3)         30        \n                                                                 \n batch_normalization (Batch  (None, 43, 43, 3)         12        \n Normalization)                                                  \n                                                                 \n conv2d_1 (Conv2D)           (None, 43, 43, 3)         84        \n                                                                 \n batch_normalization_1 (Bat  (None, 43, 43, 3)         12        \n chNormalization)                                                \n                                                                 \n max_pooling2d (MaxPooling2  (None, 14, 14, 3)         0         \n D)                                                              \n                                                                 \n conv2d_2 (Conv2D)           (None, 14, 14, 6)         168       \n                                                                 \n batch_normalization_2 (Bat  (None, 14, 14, 6)         24        \n chNormalization)                                                \n                                                                 \n conv2d_3 (Conv2D)           (None, 14, 14, 6)         330       \n                                                                 \n batch_normalization_3 (Bat  (None, 14, 14, 6)         24        \n chNormalization)                                                \n                                                                 \n max_pooling2d_1 (MaxPoolin  (None, 4, 4, 6)           0         \n g2D)                                                            \n                                                                 \n dense (Dense)               (None, 4, 4, 128)         896       \n                                                                 \n dropout (Dropout)           (None, 4, 4, 128)         0         \n                                                                 \n dense_1 (Dense)             (None, 4, 4, 10)          1290      \n                                                                 \n flatten (Flatten)           (None, 160)               0         \n                                                                 \n dense_2 (Dense)             (None, 1)                 161       \n                                                                 \n=================================================================\nTotal params: 3031 (11.84 KB)\nTrainable params: 2995 (11.70 KB)\nNon-trainable params: 36 (144.00 Byte)\n_________________________________________________________________"
  },
  {
    "objectID": "notebooks/cp_network.html#optimizer",
    "href": "notebooks/cp_network.html#optimizer",
…
h 2824 MB memory:  -&gt; device: 0, name: NVIDIA GeForce RTX 2060, pci bus id: 0000:07:00.0, compute capability: 7.5\n2024-02-13 22:12:32.658004: I tensorflow/core/common_runtime/process_util.cc:146] Creating new thread pool with default inter op setting: 2. Tune using inter_op_parallelism_threads for best performance.\n\n\n\nmodel.summary()\n\nModel: \"sequential\"\n_________________________________________________________________\n Layer (type)                Output Shape              Param #   \n=================================================================\n conv2d (Conv2D)             (None, 43, 43, 3)         30        \n                                                                 \n batch_normalization (BatchN  (None, 43, 43, 3)        12        \n ormalization)                                                   \n                                                                 \n conv2d_1 (Conv2D)           (None, 43, 43, 3)         84        \n                                                                 \n batch_normalization_1 (Batc  (None, 43, 43, 3)        12        \n hNormalization)                                                 \n                                                                 \n max_pooling2d (MaxPooling2D  (None, 14, 14, 3)        0         \n )                                                               \n                                                                 \n conv2d_2 (Conv2D)           (None, 14, 14, 6)         168       \n                                                                 \n batch_normalization_2 (Batc  (None, 14, 14, 6)        24        \n hNormalization)                                                 \n                                                                 \n conv2d_3 (Conv2D)           (None, 14, 14, 6)         330       \n                                                                 \n batch_normalization_3 (Batc  (None, 14, 14, 6)        24        \n hNormalization)                                                 \n                                                                 \n max_pooling2d_1 (MaxPooling  (None, 4, 4, 6)          0         \n 2D)                                                             \n                                                                 \n dense (Dense)               (None, 4, 4, 128)         896       \n                                                                 \n dropout (Dropout)           (None, 4, 4, 128)         0         \n                                                                 \n dense_1 (Dense)             (None, 4, 4, 10)          1290      \n                                                                 \n flatten (Flatten)           (None, 160)               0         \n                                                                 \n dense_2 (Dense)             (None, 1)                 161       \n                                                                 \n=================================================================\nTotal params: 3,031\nTrainable params: 2,995\nNon-trainable params: 36\n_________________________________________________________________"
  },
  {
    "objectID": "persistent-exclusion-process/persistent-exclusion-process/notebooks/np_network.html#optimizer",
…
