…
el.add(BatchNormalization())\n\nmodel.add(MaxPooling2D(pool_size=(3, 3)))\n\nmodel.add(Dense(units=128, activation='relu'))\n\nwith options({\"layout_optimizer\": False}):\n    model.add(Dropout(0.2))\nmodel.add(Dense(units=10, activation='softmax'))\n\nmodel.add(Flatten())\nmodel.add(Dense(units=1, activation='linear'))\n\n\nmodel.summary()\n\nModel: \"sequential\"\n_________________________________________________________________\n Layer (type)                Output Shape              Param #   \n=================================================================\n conv2d (Conv2D)             (None, 43, 43, 3)         30        \n                                                                 \n batch_normalization (Batch  (None, 43, 43, 3)         12        \n Normalization)                                                  \n                                                                 \n conv2d_1 (Conv2D)           (None, 43, 43, 3)         84        \n                                                                 \n batch_normalization_1 (Bat  (None, 43, 43, 3)         12        \n chNormalization)                                                \n                                                                 \n max_pooling2d (MaxPooling2  (None, 14, 14, 3)         0         \n D)                                                              \n                                                                 \n conv2d_2 (Conv2D)           (None, 14, 14, 6)         168       \n                                                                 \n batch_normalization_2 (Bat  (None, 14, 14, 6)         24        \n chNormalization)                                                \n                                                                 \n conv2d_3 (Conv2D)           (None, 14, 14, 6)         330       \n                                                                 \n batch_normalization_3 (Bat  (None, 14, 14, 6)         24        \n chNormalization)                                                \n                                                                 \n max_pooling2d_1 (MaxPoolin  (None, 4, 4, 6)           0         \n g2D)                                                            \n                                                                 \n dense (Dense)               (None, 4, 4, 128)         896       \n                                                                 \n dropout (Dropout)           (None, 4, 4, 128)         0         \n                                                                 \n dense_1 (Dense)             (None, 4, 4, 10)          1290      \n                                                                 \n flatten (Flatten)           (None, 160)               0         \n                                                                 \n dense_2 (Dense)             (None, 1)                 161       \n                                                                 \n=================================================================\nTotal params: 3031 (11.84 KB)\nTrainable params: 2995 (11.70 KB)\nNon-trainable params: 36 (144.00 Byte)\n_________________________________________________________________"
  },
  {
    "objectID": "notebooks/cp_network.html#optimizer",
    "href": "notebooks/cp_network.html#optimizer",
…
ues\nHere is a brief attempt to train the CNN on broader N values. This will be investigated more in depth at the end of the project. Model michigan2241 is trained on \\(N_x=N_y=256\\); an example screenshot can be found below.\n\nRunning MN_2 architecture, the training yields the following predictions:\n\nWe can see the fitting does not match\nModel: \"sequential\"\n_________________________________________________________________\n Layer (type)                Output Shape              Param #   \n=================================================================\n conv2d (Conv2D)             (None, 256, 256, 3)       30        \n                                                                 \n max_pooling2d (MaxPooling2  (None, 128, 128, 3)       0         \n D)                                                              \n                                                                 \n re_lu (ReLU)                (None, 128, 128, 3)       0         \n                                                                 \n batch_normalization (Batch  (None, 128, 128, 3)       12        \n Normalization)                                                  \n                                                                 \n conv2d_1 (Conv2D)           (None, 128, 128, 6)       456       \n                                                                 \n max_pooling2d_1 (MaxPoolin  (None, 64, 64, 6)         0         \n g2D)                                                            \n                                                                 \n re_lu_1 (ReLU)              (None, 64, 64, 6)         0         \n                                                                 \n batch_normalization_1 (Bat  (None, 64, 64, 6)         24        \n chNormalization)                                                \n                                                                 \n global_average_pooling2d (  (None, 6)                 0         \n GlobalAveragePooling2D)                                         \n                                                                 \n dropout (Dropout)           (None, 6)                 0         \n                                                                 \n dense (Dense)               (None, 64)                448       \n                                                                 \n dropout_1 (Dropout)         (None, 64)                0         \n                                                                 \n dense_1 (Dense)             (None, 10)                650       \n                                                                 \n flatten (Flatten)           (None, 10)                0         \n                                                                 \n dense_2 (Dense)             (None, 1)                 11        \n                                                                 \n=================================================================\nTotal params: 1631 (6.37 KB)\nTrainable params: 1613 (6.30 KB)\nNon-trainable params: 18 (72.00 Byte)\n_________________________________________________________________\n\n\n5. Model Summaries\n\n\n\n\n Back to top"
  },
  {
    "objectID": "activity_log/week13-15.html",
…
