…
Here is a brief attempt to train the CNN on broader N values. This will be investigated more in depth at the end of the project. Model michigan2241 is trained on $N_x=N_y=256$; an example screenshot can be found below.

![](./week-16-files/256.0_0.016.png)

Running MN_2 architecture, the training yields the following predictions:

![](./week-16-files/michigan2241.png)

We can see the fitting does not match 

```
Model: "sequential"
_________________________________________________________________
 Layer (type)                Output Shape              Param #   
=================================================================
 conv2d (Conv2D)             (None, 256, 256, 3)       30        
                                                                 
 max_pooling2d (MaxPooling2  (None, 128, 128, 3)       0         
 D)                                                              
                                                                 
 re_lu (ReLU)                (None, 128, 128, 3)       0         
                                                                 
 batch_normalization (Batch  (None, 128, 128, 3)       12        
 Normalization)                                                  
                                                                 
 conv2d_1 (Conv2D)           (None, 128, 128, 6)       456       
                                                                 
 max_pooling2d_1 (MaxPoolin  (None, 64, 64, 6)         0         
 g2D)                                                            
                                                                 
 re_lu_1 (ReLU)              (None, 64, 64, 6)         0         
                                                                 
 batch_normalization_1 (Bat  (None, 64, 64, 6)         24        
 chNormalization)                                                
                                                                 
 global_average_pooling2d (  (None, 6)                 0         
 GlobalAveragePooling2D)                                         
                                                                 
 dropout (Dropout)           (None, 6)                 0         
                                                                 
 dense (Dense)               (None, 64)                448       
                                                                 
 dropout_1 (Dropout)         (None, 64)                0         
                                                                 
 dense_1 (Dense)             (None, 10)                650       
                                                                 
 flatten (Flatten)           (None, 10)                0         
                                                                 
 dense_2 (Dense)             (None, 1)                 11        
                                                                 
=================================================================
Total params: 1631 (6.37 KB)
Trainable params: 1613 (6.30 KB)
Non-trainable params: 18 (72.00 Byte)
_________________________________________________________________
```
# 5. Model Summaries
